AutogluonModels/ag-20210822_210329/models/NeuralNetFastAI_BAG_L1/S1F2/model-internals.pkl (torch, 126371 bytes, 15 tensors)

weight f4 [11]
1.0127057 1.0025741 1.0188237 1.0230742 1.0165495 1.0299628 0.9997771 1.0081701
0.98941463 0.95777774 0.96174186
00000000: 57a0 813f 5954 803f d168 823f 18f4 823f
00000010: 4b1e 823f d2d5 833f 64f1 7f3f b80b 813f
00000020: 474a 7d3f ec30 753f b734 763f

bias f4 [11]
-0.03568352 -0.034642365 0.07524025 0.075004645 -0.094308116 0.02145527 0.06011076 0.009955575
-0.010671391 0.032736763 -0.013797252
00000000: e228 12bd 27e5 0dbd 8f17 9a3d 099c 993d
00000010: 9d24 c1bd f6c2 af3c b336 763d b51c 233c
00000020: 0fd7 2ebc fc16 063d df0d 62bc

running_mean f4 [11]
6.544879e-05 0.00057403644 9.391983e-05 -0.00322198 -0.010968017 -0.009194745 0.0029327222 0.0056790877
-0.009134745 -0.0010871462 -0.0018026129
00000000: 8d41 8938 ef7a 163a d3f6 c438 db27 53bb
00000010: 33b3 33bc 8ea5 16bc ea32 403b a417 ba3b
00000020: e6a9 15bc 937e 8eba a745 ecba

running_var f4 [11]
0.9976499 0.99905854 1.0050883 1.0104214 1.0055274 1.014275 1.0003686 0.9949755
0.9720626 1.000754 0.99318564
00000000: fc65 7f3f 4dc2 7f3f bca6 803f 7d55 813f
00000010: 1fb5 803f c3d3 813f 140c 803f b7b6 7e3f
00000020: 18d9 783f b518 803f 6a41 7e3f

weight f4 [200, 11]
0.21126145 -0.20204459 -0.1913999 0.019253807 0.29662666 0.083639994 0.22176725 0.07539239
0.24284776 -0.24769549 -0.2124662 0.18014325 0.21471427 -0.016472362 0.16717368 0.0113659715
0.29052392 0.20943256 0.22351661 0.05330575 0.24251571 -0.22052597 0.33520302 -0.2873962
0.10699498 0.2385484 0.013786067 0.013529753 0.2106655 0.1381142 0.023644568 -0.22705674
-0.10094218 0.24713093 0.20430435 0.15140612 -0.2545881 0.2199433 0.12561972 0.11851447
-0.005729463 0.061939366 0.077288836 0.16823824 -0.19646274 -0.22508287 0.13976468 -0.07825544
0.30608553 0.22493155 -0.008888153 0.13197236 0.15310863 0.28314322 0.2575291 -0.29605934
0.15512188 0.18815234 0.03140735 0.10197712 0.02162006 -0.29808214 0.2797672 0.22892886
0.053881608 0.14647159 -0.047866862 0.18392101 -0.074925095 -0.053450327 0.050008386 0.13491881
0.13054691 0.0010314074 0.14060006 -0.29566798 0.22563691 0.25111002 -0.16071993 -0.05869502
-0.13569278 0.070966035 -0.042815775 0.29098266 -0.0046598613 0.22311078 0.16125876 -0.15852138
0.01519942 -0.16813494 0.08409497 -0.2457295 -0.029917173 0.09901522 0.19800363 -0.282749
-0.114990085 -0.2403924 0.23634924 0.23355891 0.28815538 0.011832838 0.024219299 0.035316408
-0.28932008 -0.07610684 -0.26586416 -0.24936509 -0.04827032 -0.26706612 -0.12145106 -0.2054572
0.04992791 0.31805974 0.3179792 -0.2214613 0.019465573 0.063387334 -0.04480325 0.003047492
0.25701788 -0.0782757 0.26522905 0.17201386 0.17254299 0.24968788 -0.039931353 0.0139294015
-0.09040733 0.06812537 0.0069143013 -0.109930724 0.193664 0.24157919 -0.20576888 -0.08165014
0.2177773 0.089053646 -0.20529588 -0.06173794 0.098674685 -0.10796913 0.075627305 0.22295956
0.21201427 -0.22189844 0.04357816 -0.017804405 0.21918465 0.090971015 0.19844563 0.2372132
-0.28055257 0.1985909 -0.11032638 0.12272932 0.2330648 -0.22848375 0.12879646 -0.28209293
-0.13384798 0.015458579 -0.2825444 0.28695413 -0.20753177 -0.19638464 -0.12687694 -0.21838816
0.18587568 -0.01186691 -0.21646444 -0.046541985 -0.036189236 0.28312624 0.06880307 -0.22774449
-0.21212222 -0.040249374 -0.054518856 0.09075356 0.24524952 0.0753722 -0.14362407 0.111610286
-0.24019137 -0.13193552 -0.103101104 -0.25812826 -0.24822222 -0.167348 -0.033251293 0.23349577
-0.2339175 -0.07685954 0.0037621248 0.2626179 -0.11956742 -0.19896482 -0.003354738 -0.032495372
-0.16747127 -0.05943618 0.32512826 -0.2500791 0.28984192 -0.18546078 -0.1429568 0.13563094
0.23284726 -0.2320645 -0.0479381 0.11981736 -0.12284575 0.24345207 -0.24666841 -0.11155906
0.18191831 -0.03218034 -0.14180866 -0.06125645 0.2622995 -0.19769727 -0.29626104 -0.25075945
-0.03968916 0.2985351 0.014552375 -0.23295723 -0.20972686 -0.21226954 0.20169619 -0.14868996
0.30526698 -0.15566085 -0.09047344 -0.27246487 -0.17884053 -0.16723362 0.076608896 0.2734817
0.13736965 -0.27326995 0.03525525 0.26601264 -0.013945729 -0.13733283 0.029222531 -0.2696227
0.29336533 -0.145005 0.20873305 -0.13616823 0.038729917 0.24687433 0.18381174 0.09765205
00000000: ec54 583e c7e4 4ebe 56fe 43be 29ba 9d3c
00000010: 73df 973e 724b ab3d f416 633e 5367 9a3d
00000020: 15ad 783e e3a3 7dbe bd90 59be 7977 383e
00000030: 0fde 5b3e 0cf1 86bc 942f 2b3e 5738 3a3c
00000040: 8dbf 943e 7d75 563e 8ae1 643e 2157 5a3d
00000050: 0a56 783e 8fd1 61be bb9f ab3e 9825 93be
00000060: 2f20 db3d 0846 743e f5de 613c e6ab 5d3c
00000070: b2b8 573e cf6d 0d3e 41b2 c13c 9081 68be
00000080: c6ba cebd e40f 7d3e 2935 513e 350a 1b3e
00000090: 5f59 82be d138 613e 75a2 003e b7b7 f23d
000000a0: 38be bbbb 22b4 7d3d 9c49 9e3d a546 2c3e
000000b0: 872d 49be 207c 66be 791e 0f3e 6344 a0bd
000000c0: 3eb7 9c3e 7554 663e 9e9f 11bc c323 073e
000000d0: 82c8 1c3e 26f8 903e dbda 833e 1795 97be
000000e0: 45d8 1e3e 02ab 403e fea4 003d 61d9 d03d
000000f0: 8d1c b13c 399e 98be a53d 8f3e 546c 6a3e
00000100: f6b2 5c3d a6fc 153e 0b10 44bd ca55 3c3e
00000110: 5472 99bd bbee 5abd 98d5 4c3d 2828 0a3e
00000120: 17ae 053e 4a30 873a 76f9 0f3e cb61 97be
00000130: 5d0d 673e 7e91 803e c493 24be 306a 70bd
00000140: 0cf3 0abe a456 913d 985f 2fbd aefb 943e
00000150: c0b1 98bb 2777 643e 0421 253e 6e53 22be
00000160: fd06 793c 912b 2cbe fc39 ac3d 84a0 7bbe
00000170: dc14 f5bc 7ec8 ca3d 77c1 4a3e 7ac4 90be
00000180: ec7f ebbd 6d29 76be 8905 723e 112a 6f3e
00000190: 1a89 933e 85de 413c 8d67 c63c f0a7 103d
000001a0: c321 94be e7dd 9bbd 591f 88be 9059 7fbe
000001b0: 19b7 45bd e4bc 88be 55bb f8bd 5f63 52be
000001c0: 3581 4c3d bad8 a23e 2bce a23e c0c6 62be
000001d0: 4476 9f3c 38d1 813d 9d83 37bd 6eb8 473b
000001e0: d997 833e 034f a0bd 1acc 873e 6724 303e
000001f0: 1caf 303e 2eae 7f3e 0f8f 23bd 2538 643c
00000200: 7a27 b9bd 5085 8b3d 5d91 e23b 5c23 e1bd
00000210: db4f 463e 8960 773e 14b5 52be 3038 a7bd
00000220: 0301 5f3e c261 b63d 1539 52be ece0 7cbd
00000230: f415 ca3d eb1e ddbd 7de2 9a3d 834f 643e
00000240: 451a 593e 5839 63be 037f 323d 8bda 91bc
00000250: f171 603e 034f ba3d 5535 4b3e 04e8 723e
00000260: 96a4 8fbe 6a5b 4b3e ccf2 e1bd 8259 fb3d
00000270: 8aa8 6e3e a5f7 69be 38e3 033e 7c6e 90be
00000280: 720f 09be fb45 7d3c a9a9 90be a7eb 923e
00000290: 3583 54be 0e19 49be 07ec 01be 25a1 5fbe
000002a0: 3256 3e3e 6e6d 42bc dba8 5dbe cfa2 3ebd
000002b0: 2a3b 14bd ecf5 903e a0e8 8c3d da35 69be
000002c0: 9136 59be 87dc 24bd 2a4f 5fbd 01dd b93d
000002d0: b122 7b3e bd5c 9a3d 3012 13be ef93 e43d
000002e0: baf4 75be 1b1a 07be ac26 d3bd 6329 84be
000002f0: f72d 7ebe 465d 2bbe 8232 08bd 8419 6f3e
00000300: 1288 6fbe 8968 9dbd fb8d 763b da75 863e
00000310: c3df f4bd 6fbd 4bbe 2adb 5bbb de19 05bd
00000320: 977d 2bbe 5a73 73bd 3677 a63e 5e0a 80be
00000330: 2966 943e 6ee9 3dbe 4463 12be d6e2 0a3e
00000340: 836f 6e3e 51a2 6dbe be5a 44bd ce62 f53d
00000350: 8d96 fbbd 804b 793e a596 7cbe 1479 e4bd
00000360: cb48 3a3e 88cf 03bd 4a36 11be 0be8 7abd
00000370: 1f4c 863e 2771 4abe 87af 97be 8b63 80be
00000380: 1a91 22bd 98d9 983e 166d 6e3c 578c 6ebe
00000390: a3c2 56be 305d 59be 7289 4e3e 2e42 18be
000003a0: f44b 9c3e 8f65 1fbe 244a b9bd 8480 8bbe
000003b0: f921 37be 4a3f 2bbe 20e5 9c3d cb05 8c3e
000003c0: a1aa 0c3e 0aea 8bbe cf67 103d cf32 883e
000003d0: a07c 64bc faa0 0cbe 1764 ef3c fd0b 8abe
000003e0: fb33 963e 317c 14be 1ebe 553e af6f 0bbe
000003f0: 43a3 1e3d a0cc 7c3e 2539 3c3e ccfd c73d

weight f4 [200]
0.9850186 1.0175661 1.011401 1.0218776 1.0041652 1.0073664 1.0041635 0.99821377
1.060956 0.93957067 0.9960639 1.0087724 1.0051094 0.9829028 1.0261636 1.0180012
0.94583684 0.99692494 0.9840163 0.9901475 1.0388882 0.99877036 0.9920666 1.0152276
1.0523945 1.0245178 0.99143505 1.0044315 1.017469 0.9986363 1.0192603 0.9742954
1.0047928 0.99346966 1.0050584 0.98589927 1.0209848 0.99765897 0.9656375 0.99293745
0.9606606 1.0225374 1.0103904 0.9780513 1.0180638 0.9984413 1.0084307 0.9980707
1.0227247 1.0250092 1.0361767 0.982017 1.0306196 0.9983627 0.9949711 0.9844507
1.0111378 0.9726721 1.0447317 0.9692353 0.98626333 0.9988229 1.0804551 1.0498343
0.9904253 1.0032623 1.0103651 0.98263025 1.0474539 1.0243263 1.0130836 1.0039394
0.9807764 0.9949839 1.0099766 0.9821076 0.9602544 1.006894 1.0033334 1.0083978
0.9784256 1.0298061 1.0167224 1.0421833 0.9606199 0.99137205 1.0064597 0.99926907
0.99684954 0.9972741 1.0173291 0.99079627 0.9937149 0.9990982 0.96350163 0.99014354
1.0327084 1.000592 1.0118717 1.0097234 1.0214571 1.0099887 0.97788054 0.9924646
1.0158153 0.99721456 0.9866837 1.0232615 0.98219514 1.001914 1.008947 0.9688084
0.9777704 1.0389006 1.0215311 1.0071138 0.9950368 1.0166988 1.0244281 1.0033829
0.9893935 0.98706 1.0058298 1.0325222 0.9918074 1.0317369 1.0188302 1.0098746
0.9838157 0.9943762 0.96746886 0.9531686 0.9927734 0.9894424 1.0103704 0.96948856
0.96878725 0.9929379 1.0438735 0.9589713 0.9785807 0.98968995 0.97611415 0.99700135
0.9890715 1.0065049 0.9922179 1.0087292 1.0100608 0.99499905 1.004635 1.0307447
1.0215335 0.98189497 1.0043472 1.0054992 1.0257407 0.9908194 0.9893732 0.97399616
1.0168208 0.99574816 1.0233346 1.0092402 1.010825 1.0039983 1.0567329 1.0042965
1.0226403 1.0056002 1.0342473 0.9690594 0.9801415 1.0321919 1.0128527 0.9904964
0.97512704 0.9656146 0.99945056 0.99963313 1.0347499 1.0029705 1.0277736 0.97929746
0.9432081 0.9943049 0.972903 1.0227472 0.99256074 1.0120794 1.0135881 0.97262806
1.0378014 0.9879721 1.0033946 0.9770799 0.9978326 0.9961501 1.0713565 1.0207441
00000000: 2e2a 7c3f 9b3f 823f 9775 813f e3cc 823f
00000010: 7c88 803f 62f1 803f 6e88 803f f08a 7f3f
00000020: 68cd 873f b487 703f 0bfe 7e3f 741f 813f
00000030: 6da7 803f 859f 7b3f 5459 833f dd4d 823f
00000040: 5d22 723f 7936 7f3f 7ee8 7b3f 4e7a 7d3f
00000050: 4afa 843f 6aaf 7f3f 14f8 7d3f faf2 813f
00000060: ddb4 863f 6623 833f b0ce 7d3f 3691 803f
00000070: 6d3c 823f a1a6 7f3f 1f77 823f 6c6b 793f
00000080: 0d9d 803f 0754 7e3f c1a5 803f e563 7c3f
00000090: a1af 823f 9466 7f3f 0534 773f 2631 7e3f
000000a0: daed 753f 81e2 823f 7954 813f 9261 7a3f
000000b0: ea4f 823f d999 7f3f 4214 813f 9081 7f3f
000000c0: a5e8 823f 8033 833f 70a1 843f 7765 7b3f
000000d0: 58eb 833f b394 7f3f 6db6 7e3f f604 7c3f
000000e0: f76c 813f 0a01 793f c5b9 853f ce1f 783f
000000f0: c17b 7c3f dcb2 7f3f 5a4c 8a3f f860 863f
00000100: 838c 7d3f e66a 803f a553 813f a88d 7b3f
00000110: f812 863f 201d 833f b9ac 813f 1681 803f
00000120: 2a14 7b3f 44b7 7e3f ea46 813f 676b 7b3f
00000130: 3bd3 753f e7e1 803f 3b6d 803f 2e13 813f
00000140: 1a7a 7a3f b0d0 833f f623 823f 4366 853f
00000150: 30eb 753f 8fca 7d3f acd3 803f 19d0 7f3f
00000160: 8831 7f3f 5b4d 7f3f d737 823f d3a4 7d3f
00000170: 1a64 7e3f e6c4 7f3f 0ba8 763f 0c7a 7d3f
00000180: ca2f 843f 6613 803f 0385 813f 9e3e 813f
00000190: 1bbf 823f 4f47 813f 6156 7a3f 2912 7e3f
000001a0: 3c06 823f 7449 7f3f 4e97 7c3f 3cfa 823f
000001b0: 2471 7b3f b83e 803f 2d25 813f d403 783f
000001c0: 294f 7a3f b2fa 843f 88c1 823f 1be9 803f
000001d0: bbba 7e3f 3023 823f 7620 833f da6e 803f
000001e0: e448 7d3f f7af 7c3f 08bf 803f b029 843f
000001f0: 17e7 7d3f f40f 843f 0769 823f 9243 813f
00000200: 59db 7b3f 708f 7e3f 0aac 773f db02 743f
00000210: 6626 7e3f 194c 7d3f d153 813f 6730 783f
00000220: 7102 783f 2e31 7e3f a69d 853f 257f 753f
00000230: 4484 7a3f 525c 7d3f 9ee2 793f 7b3b 7f3f
00000240: ca33 7d3f 27d5 803f fe01 7e3f 0a1e 813f
00000250: ac49 813f 42b8 7e3f e197 803f 71ef 833f
00000260: 9cc1 823f 785d 7b3f 738e 803f 33b4 803f
00000270: 794b 833f 57a6 7d3f 9047 7d3f d057 793f
00000280: 2f27 823f 5ae9 7e3f a1fc 823f c82e 813f
00000290: b762 813f 0483 803f 0643 873f ca8c 803f
000002a0: e1e5 823f 82b7 803f 3762 843f 4714 783f
000002b0: 8eea 7a3f dd1e 843f 28a5 813f 2c91 7d3f
000002c0: eda1 793f 8532 773f fedb 7f3f f5e7 7f3f
000002d0: af72 843f 5661 803f 168e 833f 3db3 7a3f
000002e0: 1676 713f c48a 7e3f 2c10 793f 61e9 823f
000002f0: 7618 7e3f d18b 813f 41bd 813f 27fe 783f
00000300: add6 843f bdeb 7c3f 3c6f 803f e921 7a3f
00000310: f571 7f3f b103 7f3f 3622 893f bea7 823f

bias f4 [200]
-0.028117584 0.003941684 0.047659773 -0.07313348 0.029932577 -0.047231846 -0.057987355 -0.019471284
-0.032519028 0.022103501 -0.0044896943 -0.0066453987 0.0024819272 -0.049474888 0.003327285 0.0357058
0.03893638 -0.002197475 -0.019785615 -0.0085971495 -0.011400106 -0.0569528 0.03507302 0.024109343
0.058948964 -0.0028835516 0.02574024 0.005522099 -0.028551731 -0.05277477 -0.008292808 0.038259998
-0.0018858218 -0.030814696 0.017572276 -0.03598174 0.06478366 -0.004883199 -0.00010858188 0.013845531
0.0004373129 -0.015230372 0.0052959924 -0.013274751 -0.03570598 0.021403525 -0.062430367 0.0043570157
-0.004349013 0.016255403 0.0077983947 -0.012576815 -0.013632457 0.0038877067 -0.023890972 0.012524596
0.00818472 -0.019349407 0.035372313 0.016764699 0.03169199 0.004287802 0.06422841 -0.0045610038
0.039771773 0.0075108963 0.048108894 0.026850136 0.053115934 -0.020958439 -0.050155737 0.02333757
-0.015000959 0.0035540005 -0.002477221 0.012771905 0.045251027 -0.027794056 -0.01208463 -0.020086488
-0.008725362 0.021027591 0.059165344 -0.031912148 -0.00028950107 -0.032900997 0.007060985 -0.0054189665
0.008132649 -0.01292285 -0.010368224 -0.006159918 -0.012539341 0.008539039 0.0002926332 -0.02488831
0.06608825 -0.04142833 -0.04864173 -0.015541422 -0.05654862 0.05652107 0.06052541 0.0015576896
-0.006926028 -0.017890735 0.003648718 -0.020438064 0.023802089 -0.013904892 -0.038404446 0.03125264
-0.020987628 -0.009015644 -0.0041538016 0.03237475 0.022555463 0.03715423 0.025102593 0.024870196
0.03929819 -0.023001727 0.009184423 -0.03487305 -0.023805236 -0.033140622 -0.0027361673 -0.022293616
0.014869549 -0.008238778 -0.013474764 -0.021855088 -0.023777677 -0.056550134 0.048292093 -0.042177662
-0.011869294 0.055488825 -0.013126817 0.02944472 0.011193694 -0.000594991 0.059710182 0.01206353
-0.0018156774 0.0074699656 -0.0320378 -0.004371453 0.03559236 0.019321196 0.0071116006 -0.015940417
-0.01120205 0.043188937 -0.012284105 0.035954736 0.015685268 -0.01997574 -0.012708667 -0.0065552252
-0.016120516 -0.045290206 -0.057181064 -0.02167396 -0.013778423 -0.0415192 0.089040555 -0.005595653
-0.03239728 -0.01159069 0.011298506 0.011082695 0.03135615 0.042318493 -0.020450149 -0.011630479
0.04599439 0.004412151 0.007460266 -0.004735671 -0.019123077 -0.042044967 -0.0056322734 -0.051411238
0.03704169 -0.033826098 0.031946618 0.027072161 0.00040857843 -0.04617518 0.010865209 0.023490433
0.09134685 0.047106776 -0.015479277 -0.015535818 -0.03482112 -0.0030143752 0.016165895 -0.018655343
00000000: d956 e6bc 3e29 813b e536 433d 02c7 95bd
00000010: 2a35 f53c 2e76 41bd 2684 6dbd 3e82 9fbc
00000020: ac32 05bd 6712 b53c 491e 93bb a5c1 d9bb
00000030: d4a7 223b 2ea6 4abd 940e 5a3b 3f40 123d
00000040: c17b 1f3d 8303 10bb 7115 a2bc 0fdb 0cbc
00000050: 83c7 3abc 5747 69bd baa8 0f3d f580 c53c
00000060: 7874 713d f8f9 3cbb 32dd d23c b9f2 b43b
00000070: 52e5 e9bc 5b2a 58bd 8fde 07bc 84b6 1c3d
00000080: ae2d f7ba 1a6f fcbc bcf3 8f3c 9761 13bd
00000090: 4cad 843d 3e03 a0bb 74b6 e3b8 5ed8 623c
000000a0: 2547 e539 cf88 79bc 018a ad3b 577e 59bc
000000b0: 6f40 12bd 7256 af3c fcb6 7fbd 4cc5 8e3b
000000c0: 2a82 8ebb 0d2a 853c ad89 ff3b fc0e 4ebc
000000d0: ab5a 5fbc e5c8 7e3b 00b7 c3bc f733 4d3c
000000e0: 3419 063c a682 9ebc 8fe2 103d 1f56 893c
000000f0: 76cf 013d b180 8c3b 2f8a 833d 7974 95bb
00000100: bae7 223d f71d f63b d50d 453d d1f4 db3c
00000110: 1890 593d 08b1 abbc 1a70 4dbd 6e2e bf3c
00000120: 95c6 75bc 3cea 683b df58 22bb 4141 513c
00000130: 2459 393d 5cb0 e3bc 9dfe 45bc 6b8c a4bc
00000140: d2f4 0ebc 0e42 ac3c 5c57 723d 50b6 02bd
00000150: 2dc8 97b9 32c3 06bd d65f e73b 9691 b1bb
00000160: cd3e 053c 5dba 53bc 7cdf 29bc 23d9 c9bb
00000170: cf71 4dbc 53e7 0b3c 906c 9939 92e2 cbbc
00000180: 4759 873d c1b0 29bd 8d3c 47bd 73a1 7ebc
00000190: 879f 67bd a382 673d 7ee9 773d 642b cc3a
000001a0: bcf3 e2bb 978f 92bc 541f 6f3b ba6d a7bc
000001b0: 99fc c23c 58d1 63bc fb4d 1dbd c502 003d
000001c0: 3fee abbc 5ab6 13bc 9d1c 88bb 639b 043d
000001d0: 3cc6 b83c 092f 183d f4a3 cd3c 95bc cb3c
000001e0: 24f7 203d 1e6e bcbc 437a 163c 0bd7 0ebd
000001f0: 3303 c3bc 76be 07bd 4551 33bb 1aa1 b6bc
00000200: 699f 733c f1fb 06bc 42c5 5cbc 7109 b3bc
00000210: 67c9 c2bc 1da1 67bd eecd 453d 7cc2 2cbd
00000220: 6d77 42bc 4048 633d dc11 57bc 0e36 f13c
00000230: c165 373c 2cf9 1bba aa92 743d 1da6 453c
00000240: 06fc edba 9dc6 f43b 113a 03bd 683e 8fbb
00000250: 4bc9 113d 7c47 9e3c 6e08 e93b 7a95 82bc
00000260: ce88 37bc e2e6 303d 4543 49bc 4645 133d
00000270: 647e 803c 2aa4 a3bc 0338 50bc 37cd d6bb
00000280: 2c0f 84bc 3982 39bd b136 6abd 978d b1bc
00000290: e5be 61bc 0910 2abd e55a b63d bd5b b7bb
000002a0: 03b3 04bd e1e6 3dbc 5e1d 393c 3194 353c
000002b0: 4e6f 003d 2856 2d3d 1287 a7bc c48d 3ebc
000002c0: 9d64 3c3d ce93 903b 3f75 f43b b02d 9bbb
000002d0: 00a8 9cbc 5837 2cbd ef8e b8bb 9794 52bd
000002e0: 07b9 173d 3c8d 0abd 75da 023d 70c6 dd3c
000002f0: 7836 d639 2f22 3dbd fd03 323c 026f c03c
00000300: 0f14 bb3d 09f3 403d cb9c 7dbc f289 7ebc
00000310: 97a0 0ebd d38c 45bb 576e 843c 17d3 98bc

running_mean f4 [200]
0.24731818 0.2136871 0.30116683 0.20915082 0.24099329 0.19443429 0.1706398 0.16675417
0.22277841 0.22397387 0.2482029 0.16650066 0.18208545 0.24716567 0.22506988 0.21147853
0.19281031 0.2178833 0.18603887 0.17690739 0.24176118 0.24958202 0.20392045 0.2410227
0.20833789 0.14549154 0.20916754 0.24896571 0.18076017 0.24975477 0.24402027 0.3114447
0.16158257 0.20256309 0.2378802 0.23648964 0.17994149 0.16408607 0.17462742 0.15258497
0.18572271 0.15100943 0.14064343 0.23556718 0.15735538 0.2893384 0.19692504 0.24717861
0.1819576 0.2416198 0.30195218 0.2141093 0.13140664 0.22748867 0.1625717 0.2106616
0.18116702 0.22808133 0.16737357 0.18883209 0.25101164 0.16554871 0.24064752 0.157389
0.20834933 0.26465145 0.18910809 0.23322417 0.28740638 0.2445897 0.1807766 0.14594729
0.26090863 0.18081836 0.211726 0.18556926 0.24260692 0.18633464 0.22551754 0.15759674
0.2579101 0.22004946 0.17756554 0.21985947 0.22924025 0.16338232 0.1338998 0.21244442
0.18321303 0.149891 0.14224307 0.16335867 0.23606294 0.24170879 0.29159772 0.25583512
0.21627687 0.18821038 0.20429641 0.27186573 0.22716342 0.20311739 0.1818388 0.17871109
0.2027199 0.30901247 0.30322486 0.19629677 0.23498519 0.23803246 0.260742 0.19893873
0.1625169 0.17610796 0.22386819 0.24300668 0.15543924 0.20098709 0.21159805 0.21325286
0.27593958 0.3191074 0.15984598 0.22329807 0.14160898 0.3126803 0.20122129 0.25562066
0.16046868 0.2822054 0.22183314 0.17116661 0.25376385 0.1788092 0.20013769 0.24976481
0.23862149 0.25695568 0.23140079 0.24528278 0.27323508 0.20978548 0.18146908 0.21515413
0.2178039 0.14970751 0.25134352 0.22228046 0.25006363 0.16483845 0.16884694 0.1890942
0.18781576 0.1570603 0.25298792 0.2310757 0.21455394 0.22695729 0.18298188 0.16173346
0.27965802 0.18085957 0.26395053 0.209039 0.15752113 0.20126161 0.22408836 0.24804801
0.21539754 0.2068462 0.24057977 0.19834514 0.21972369 0.15066242 0.21992014 0.25547984
0.34607884 0.15730006 0.2836135 0.16684626 0.16145559 0.18121113 0.15221627 0.15162274
0.21941444 0.15442875 0.16180179 0.2995755 0.23369478 0.15909778 0.27357638 0.213536
0.17816417 0.2157299 0.27827007 0.22499862 0.14567308 0.19392489 0.16973414 0.14765483
00000000: fa40 7d3e cbd0 5a3e 8a32 9a3e a22b 563e
00000010: f2c6 763e c819 473e 33bc 2e3e 9bc1 2a3e
00000020: 0620 643e 6859 653e e728 7e3e 267f 2a3e
00000030: 9c74 3a3e ff18 7d3e b878 663e d48d 583e
00000040: 1170 453e cd1c 5f3e f980 3e3e 3627 353e
00000050: 3e90 773e 6e92 7f3e 86d0 503e a8ce 763e
00000060: 8756 553e bcfb 143e 0430 563e def0 7e3e
00000070: 3219 393e b7bf 7f3e 73e0 793e ae75 9f3e
00000080: e775 253e b36c 4f3e de96 733e 572a 723e
00000090: 9542 383e 2e06 283e 88d1 323e 3c3f 1c3e
000000a0: 182e 3e3e 37a2 1a3e d504 103e 8638 713e
000000b0: c521 213e 2a24 943e b8a6 493e 641c 7d3e
000000c0: 1853 3a3e 2e6b 773e 7a99 9a3e 783f 5b3e
000000d0: 768f 063e caf2 683e 3279 263e adb7 573e
000000e0: d983 393e 278e 693e fa63 2b3e 335d 413e
000000f0: 9984 803e 9a85 293e 4e6c 763e 952a 213e
00000100: 8759 553e 6580 873e 8da5 413e 51d2 6e3e
00000110: ee26 933e b975 7a3e 801d 393e 3573 153e
00000120: d195 853e 7328 393e b3ce 583e de05 3e3e
00000130: f36d 783e 82ce 3e3e 12ee 663e 0a61 213e
00000140: cb0c 843e a554 613e bed3 353e d722 613e
00000150: f5bd 6a3e b24d 273e 071d 093e 088b 593e
00000160: 329c 3b3e 077d 193e 2ba8 113e 7f47 273e
00000170: 7cba 713e 8282 773e 4c4c 953e d2fc 823e
00000180: af77 5d3e 39ba 403e 1433 513e fc31 8b3e
00000190: 879d 683e 01fe 4f3e f333 3a3e 0a00 373e
000001a0: ce95 4f3e e236 9e3e 4a40 9b3e 0502 493e
000001b0: f59f 703e c8be 733e fa7f 853e 98b6 4b3e
000001c0: d56a 263e a555 343e b43d 653e bed6 783e
000001d0: 772b 1f3e 8fcf 4d3e 29ad 583e f55e 5a3e
000001e0: f447 8d3e 0c62 a33e aaae 233e 40a8 643e
000001f0: f201 113e a217 a03e f40c 4e3e b6e0 823e
00000200: e751 243e 3a7d 903e 3a28 633e 4d46 2f3e
00000210: 56ed 813e c219 373e e5f0 4c3e 59c2 7f3e
00000220: 3159 743e b28f 833e 54f4 6c3e 692b 7b3e
00000230: 78e5 8b3e 01d2 563e 08d3 393e 5d51 5c3e
00000240: fc07 5f3e ed4c 193e 19b0 803e 7d9d 633e
00000250: 5708 803e 69cb 283e 36e6 2c3e e9a1 413e
00000260: c652 403e 6ad4 203e a287 813e 1c9f 6c3e
00000270: 07b4 5b3e 7e67 683e 9a5f 3b3e 759d 253e
00000280: 562f 8f3e 4033 393e 8624 873e 520e 563e
00000290: 384d 213e 8617 4e3e 6b77 653e 4c00 7e3e
000002a0: 2c91 5c3e 7ecf 533e 8b5a 763e fd1a 4b3e
000002b0: 3fff 603e 4047 1a3e bf32 613e 41ce 823e
000002c0: 3f31 b13e 4413 213e ca35 913e bfd9 2a3e
000002d0: 9d54 253e 698f 393e 95de 1b3e fe42 1b3e
000002e0: 2eae 603e 9222 1e3e 5eaf 253e f661 993e
000002f0: af4d 6f3e 87ea 223e 3412 8c3e 2ea9 5a3e
00000300: ab70 363e 4de8 5c3e 6a79 8e3e 0a66 663e
00000310: 532b 153e 3f94 463e c9ce 2d3e d432 173e

running_var f4 [200]
0.23874427 0.19744053 0.3042222 0.2024849 0.27903384 0.19602256 0.17161757 0.14792958
0.20533931 0.17214066 0.24668162 0.13806792 0.16240683 0.25007606 0.17429534 0.16998264
0.15905505 0.17280024 0.15884677 0.18645188 0.23936096 0.1864746 0.21212126 0.22665606
0.17590179 0.13383244 0.17677665 0.26164162 0.13749631 0.1952483 0.20046146 0.30470717
0.14833017 0.17226593 0.23206335 0.19532 0.15260051 0.13269094 0.16735865 0.117460355
0.16591227 0.13904276 0.13203104 0.21588492 0.1432811 0.31092256 0.16762371 0.1914292
0.1541203 0.23816012 0.2557238 0.16742729 0.13006498 0.21719322 0.19387424 0.20759253
0.15785372 0.19914839 0.14101253 0.19241466 0.22548574 0.13453828 0.20294195 0.14799659
0.15661767 0.22095022 0.16336378 0.25621533 0.22414058 0.22366442 0.16770442 0.15722018
0.24981721 0.15371694 0.18939595 0.15812442 0.20372736 0.16897723 0.21869673 0.13932584
0.21390183 0.18914855 0.13830282 0.19220604 0.19713901 0.1758722 0.12282923 0.1657881
0.19831277 0.12680575 0.13553935 0.17254685 0.20917735 0.18998796 0.2407825 0.24381544
0.21423137 0.17951381 0.20556617 0.24652044 0.2066335 0.17786075 0.19488995 0.1673569
0.19996735 0.27741608 0.28305998 0.14992602 0.28051698 0.19186273 0.2580441 0.19169942
0.13735302 0.15619163 0.20394586 0.18824191 0.1626799 0.16751853 0.18828669 0.17205092
0.23034929 0.324647 0.14062673 0.17318566 0.13150841 0.3180886 0.1714943 0.26084006
0.13414373 0.2393044 0.20150076 0.16610073 0.2229767 0.18773197 0.19043754 0.21902332
0.17787862 0.22632298 0.21849802 0.22969587 0.201492 0.18393654 0.16987698 0.21134908
0.21231024 0.15259063 0.24268748 0.19010852 0.23119697 0.13457908 0.14258671 0.17727773
0.16735701 0.14678982 0.1966088 0.2381738 0.17671745 0.20157059 0.15768409 0.15361696
0.22344792 0.1779197 0.25361896 0.21157259 0.15429975 0.16326451 0.20241967 0.22719672
0.19179465 0.20042877 0.18508641 0.17117201 0.18253446 0.1468662 0.19197562 0.21502018
0.34874612 0.13413161 0.3155733 0.15277913 0.13688904 0.15637942 0.14238378 0.13927646
0.19276594 0.14213003 0.13979003 0.28648722 0.1902289 0.13616545 0.1931108 0.18452188
0.14121819 0.22563349 0.22589152 0.20993605 0.11307797 0.16055553 0.14590159 0.14007829
00000000: 6179 743e da2d 4a3e 03c3 9b3e 3458 4f3e
00000010: 86dd 8e3e 23ba 483e 84bc 2f3e da7a 173e
00000020: 7844 523e a445 303e 1b9a 7c3e ad61 0d3e
00000030: fa4d 263e f809 803e 7a7a 323e ee0f 2e3e
00000040: 54df 223e 8cf2 303e baa8 223e 3eed 3e3e
00000050: 0a1b 753e 33f3 3e3e 5136 593e 8718 683e
00000060: 991f 343e 5f0b 093e f004 353e e4f5 853e
00000070: d5cb 0c3e 2cef 473e c545 4d3e 9402 9c3e
00000080: dde3 173e 7b66 303e 04a2 6d3e f701 483e
00000090: 4f43 1c3e 22e0 073e 1160 2b3e 0e8f f03d
000000a0: e8e4 293e 3a61 0e3e 2533 073e f010 5d3e
000000b0: 48b8 123e 3e31 9f3e 8da5 2b3e 0406 443e
000000c0: b6d1 1d3e 3fe0 733e 3bee 823e 0f72 2b3e
000000d0: c12f 053e e667 5e3e f886 463e 2393 543e
000000e0: 68a4 213e 8eed 4b3e 9765 103e 5908 453e
000000f0: bce5 663e 67c4 093e 04d0 4f3e 6b8c 173e
00000100: 6260 203e c640 623e d648 273e a82e 833e
00000110: 1c85 653e 4908 653e b5ba 2b3e 54fe 203e
00000120: 15d0 7f3e f967 1d3e 03f1 413e 5eeb 213e
00000130: e89d 503e 5e08 2d3e 09f2 5f3e 6fab 0e3e
00000140: 1509 5b3e 28b0 413e 419f 0d3e a9d1 443e
00000150: cfde 493e d817 343e e48d fb3d 5bc4 293e
00000160: 8112 4b3e 5ed9 013e d4ca 0a3e 1fb0 303e
00000170: 9632 563e 348c 423e b08f 763e c1aa 793e
00000180: 785f 5b3e 78d2 373e f07f 523e db6f 7c3e
00000190: bb97 533e 2121 363e 3b91 473e 9b5f 2b3e
000001a0: 3ec4 4c3e 7b09 8e3e 3ded 903e 3586 193e
000001b0: ec9f 8f3e aa77 443e 5b1e 843e da4c 443e
000001c0: 45a6 0c3e b3f0 1f3e 2fd7 503e 7dc2 403e
000001d0: 8f95 263e fa89 2b3e 3ace 403e 1e2e 303e
000001e0: afe0 6b3e 2238 a63e 7400 103e 9557 313e
000001f0: 24aa 063e 82dc a23e 349c 2f3e d48c 853e
00000200: f95c 093e 360c 753e 3756 4e3e 4f16 2a3e
00000210: 0154 643e cf3c 403e 0f02 433e a647 603e
00000220: d025 363e 36c1 673e f2bd 5f3e 6535 6b3e
00000230: eb53 4e3e dc59 3c3e 3bf4 2d3e e56b 583e
00000240: db67 593e b840 1c3e 1183 783e cfab 423e
00000250: e6be 6c3e 19cf 093e 4002 123e 4b88 353e
00000260: a35f 2b3e 1250 163e d153 493e d5e3 733e
00000270: 6bf5 343e 8568 4e3e f077 213e c44d 1d3e
00000280: 88cf 643e 9530 363e 58da 813e 7ca6 583e
00000290: c100 1e3e d02e 273e 1a47 4f3e 42a6 683e
000002a0: d165 443e 333d 4d3e 4b87 3d3e b747 2f3e
000002b0: 50ea 3a3e 1864 163e 4295 443e 402e 5c3e
000002c0: da8e b23e cc59 093e d392 a13e 2272 1c3e
000002d0: a42c 0c3e ed21 203e 0ecd 113e 7d9e 0e3e
000002e0: 6f64 453e 898a 113e 1e25 0f3e 74ae 923e
000002f0: 5dcb 423e f56e 0b3e d6be 453e 4ef3 3c3e
00000300: 809b 103e 770c 673e 1b50 673e 7af9 563e
00000310: 6c95 e73d ab68 243e 3a67 153e af70 0f3e

weight f4 [100, 200]
0.032001287 0.044423163 0.02802519 -0.051471394 0.016530758 0.0017302623 0.0019533557 -0.055545375
-0.042468254 0.044854995 -0.054999206 0.057819378 0.056542818 -0.005455157 -0.03184595 -0.02290653
0.07706644 0.047219813 -0.018836515 0.026128344 -0.04162339 1.6248203e-05 -0.08053635 -0.017186001
0.056471664 0.031522576 0.06362879 0.015058418 0.008597019 0.0027664031 -0.023157792 -0.09172153
0.03158579 -0.030707555 0.05239365 -0.0727956 -0.07629404 0.07797234 -0.04344424 0.009421296
0.018628154 0.0519583 0.0072745318 0.04799606 -0.03431067 0.05541303 0.019610625 0.07222678
0.03985701 -0.033019546 -0.011857893 0.051440403 0.012999814 -0.059372477 0.028120214 0.008721125
0.0493174 -0.020448409 -0.09498909 0.06420253 0.064081915 0.043681473 0.013952285 0.007041567
-0.065284505 -0.0145761715 0.023822432 -0.005567777 -0.050076876 -0.035984274 -0.012906704 0.007065187
0.032260433 0.038903054 0.026589645 0.05786198 -0.065659136 -0.08447375 -0.040624864 0.017351164
-0.023347246 -0.059893012 0.0895934 -0.031034054 -0.056931704 -0.0591122 -0.02816126 -0.05733798
-0.07191307 0.067555405 0.044510685 -0.035685737 0.028685458 0.013829822 -0.048199106 -0.010664991
-0.0809534 -0.015746577 0.035224155 0.025314512 -0.06075385 0.017451094 0.01036125 0.0395232
0.055298608 0.09773558 -0.07525702 0.0238967 0.01858216 0.09914097 -0.03287375 -0.027860682
-0.068998225 -0.025368687 0.0024983697 -0.028596357 -0.07187317 0.08479642 0.07741585 -0.07918841
0.014822009 0.053927615 0.026363904 -0.010762096 -0.0012746106 -0.024486277 -0.0047448464 0.023585854
0.05477614 0.041050777 0.014138192 0.021544226 -0.06113721 0.041885354 -0.042858604 -0.053753864
-0.009710372 0.021239916 0.031925537 0.02286316 0.0020027256 -0.03854057 -0.064223915 -0.008297974
0.03379251 0.026938083 0.009439117 0.048537422 0.021994544 0.024235724 0.052672185 -0.013140706
-0.061679453 0.031221516 -0.007995812 -0.0108223725 0.03580295 0.002672578 0.07844318 0.010446851
0.09452507 -0.017218845 0.06490368 0.026443144 0.026013853 0.0045866244 -0.040280998 0.057222586
0.06443016 0.0045399773 0.053249896 0.01919876 -0.014768658 -0.067527756 -0.04837683 0.035382513
-0.011353636 -0.05332638 0.05050424 -0.06117795 0.018338336 0.023672502 -0.006452803 0.056394316
0.07728843 -0.097948484 0.08427901 -0.076686524 0.025011824 0.028446196 0.023041638 -0.0032396605
0.038737636 -0.068057045 0.0019232916 -0.036496624 0.018501027 -0.012706792 -0.08287621 -0.010116919
0.037377648 -0.0047969897 0.058430754 0.05369555 0.0037787696 0.025858827 -0.025543842 0.008471547
-0.029438345 0.0023543285 -0.014924406 0.02922479 -0.058595642 -0.08008398 -0.0017892112 -0.055435628
-0.010651492 0.0034839856 -0.06871785 0.060660563 -0.05557227 -0.0036810061 -0.042583037 0.066204704
0.04958947 -0.022058489 -0.058580898 -0.033650592 0.00660544 0.027567353 -0.024851115 -0.0087039955
-0.069012515 -0.04738458 0.03888052 -0.03145371 -0.048776444 -0.04128642 0.044568237 0.06760618
-0.025392162 -0.018954506 -0.09368169 -0.009235799 -0.036352914 -0.0019493862 -0.037954066 0.04899211
-0.07488609 0.07721643 -0.07392291 -0.047677997 -0.043292914 0.040338844 0.015519954 -0.068012945
00000000: c813 033d 10f5 353d 1595 e53c abd3 52bd
00000010: 836b 873c f8c9 e23a df03 003b 8c83 63bd
00000020: 31f3 2dbd dfb9 373d d946 61bd 03d4 6c3d
00000030: 7199 673d 2cc1 b2bb e670 02bd 7aa6 bbbc
00000040: 02d5 9d3d 9069 413d 094f 9abc 1c0b d63c
00000050: 4a7d 2abd c04c 8837 3ef0 a4bd a8c9 8cbc
00000060: d54e 673d d11d 013d d04f 823d 95b7 763c
00000070: 83da 0c3c 8b4c 353b 69b5 bdbc 7fd8 bbbd
00000080: 1a60 013d 698e fbbc b99a 563d dc15 95bd
00000090: 0d40 9cbd f6af 9f3d 96f2 31bd c85b 1a3c
000000a0: 129a 983c 3ad2 543d 325f ee3b 8497 443d
000000b0: 5889 0cbd c6f8 623d 76a6 a03c a2eb 933d
000000c0: 1b41 233d 813f 07bd 9c47 42bc 2cb3 523d
000000d0: 2cfd 543c 8e30 73bd 5d5c e63c 0de3 0e3c
000000e0: 0b01 4a3d 6c83 a7bc a489 c2bd 9e7c 833d
000000f0: 613d 833d 58eb 323d 2098 643c f2bc e63b
00000100: e2b3 85bd e5d0 6ebc 4327 c33c e671 b6bb
00000110: 691d 4dbd 3f64 13bd a476 53bc 1683 e73b
00000120: 8423 043d cf58 1f3d 87d2 d93c af00 6d3d
00000130: 4c78 86bd 9300 adbd 4266 26bd 0724 8e3c
00000140: b942 bfbc 6052 75bd bf7c b73d 213b febc
00000150: 3831 69bd a21f 72bd 71b2 e6bc 3bdb 6abd
00000160: 2947 93bd 7d5a 8a3d d650 363d 352b 12bd
00000170: c4fd ea3c 7a96 623c 6d6c 45bd 37bc 2ebc
00000180: e5ca a5bd f7fe 80bc 3447 103d 6160 cf3c
00000190: 07d9 78bd 99f5 8e3c 3bc2 293c 14e3 213d
000001a0: cb80 623d 9729 c83d 5a20 9abd 03c3 c33c
000001b0: 9d39 983c 6c0a cb3d a0a6 06bd 163c e4bc
000001c0: f14e 8dbd fed1 cfbc b0bb 233b e842 eabc
000001d0: 3e32 93bd bfa9 ad3d 338c 9e3d 882d a2bd
000001e0: 03d8 723c 34e3 5c3d 1df9 d73c 8153 30bc
000001f0: d610 a7ba 7297 c8bc a87a 9bbb 1f37 c13c
00000200: f25c 603d dc24 283d e0a3 673c 847d b03c
00000210: 036b 7abd fa8f 2b3d 818c 2fbd 032d 5cbd
00000220: 4118 1fbc 55ff ad3c 5ac4 023d 864b bb3c
00000230: 2940 033b b7dc 1dbd d487 83bd 3af4 07bc
00000240: 046a 0a3d 41ad dc3c 87a6 1a3c 2dcf 463d
00000250: e72d b43c ff89 c63c cabe 573d 1e4c 57bc
00000260: 98a3 7cbd 44c4 ff3c de00 03bc 5250 31bc
00000270: 1da6 123d 6b26 2f3b d1a6 a03d 4529 2b3c
00000280: 5c96 c13d 890e 8dbc 38ec 843d 4b9f d83c
00000290: 011b d53c 654b 963b b0fd 24bd 3b62 6a3d
000002a0: f6f3 833d 17c4 943b 901c 5a3d b846 9d3c
000002b0: 3ef8 71bc fe4b 8abd c826 46bd 41ed 103d
000002c0: 9a04 3abc c36c 5abd 89dd 4e3d bb95 7abd
000002d0: 473a 963c d6ec c13c 0972 d3bb bafd 663d
000002e0: 6549 9e3d 3799 c8bd 799a ac3d d30d 9dbd
000002f0: 99e5 cc3c ff07 e93c d1c1 bc3c 7c50 54bb
00000300: 5bab 1e3d 7e61 8bbd f516 fc3a 7c7d 15bd
00000310: 778f 973c 2630 50bc 01bb a9bd 6fc1 25bc
00000320: 4e19 193d 1130 9dbb 1655 6f3d ddef 5b3d
00000330: 3ca5 773b e4d5 d33c 5241 d1bc 3ecc 0a3c
00000340: af28 f1bc 144b 1a3b 7f85 74bc d468 ef3c
00000350: fc01 70bd 1203 a4bd f783 eaba 7810 63bd
00000360: 9883 2ebc 9453 643b f2bb 8cbd 3677 783d
00000370: c09f 63bd 093d 71bb 8d6b 2ebd 5596 873d
00000380: 541e 4b3d 01b4 b4bc 86f2 6fbd 34d5 09bd
00000390: 7272 d83b eed4 e13c 9194 cbbc 349b 0ebc
000003a0: 6f56 8dbd 5516 42bd 2e41 1f3d 9bd5 00bd
000003b0: cfc9 47bd f31b 29bd 2f8d 363d 1c75 8a3d
000003c0: 3903 d0bc 7b46 9bbc 30dc bfbd c051 17bc
000003d0: cbe6 14bd 8c82 ffba b975 1bbd f3ab 483d
000003e0: e15d 99bd a623 9e3d e564 97bd 014a 43bd
000003f0: e953 31bd 583a 253d 6847 7e3c 5f4a 8bbd

weight f4 [100]
0.95835865 0.99402297 0.96606034 0.94784534 0.96377355 0.97834814 0.9560674 0.9573335
0.9242955 0.974884 0.99047625 0.99078643 0.9520648 0.97110045 0.97273374 0.96022034
0.98282206 0.9567412 0.9815954 0.9852886 0.9735379 0.9677834 0.9830601 0.96429247
0.97927785 0.9880349 0.96678567 0.9532115 0.9684653 0.9430233 0.978477 0.97745615
0.95983887 0.976986 0.96506023 0.973666 0.99009657 0.98144823 0.97807884 0.97269994
0.98424006 0.9786815 0.9672344 0.98091066 0.958853 0.96343535 0.985364 0.9754599
0.95753366 0.96420985 0.94831544 0.9724194 0.9546555 0.9955103 0.9573758 0.95182097
0.97753024 0.9910863 0.97760063 0.97040474 0.96951866 0.97378546 0.9819933 0.96335185
0.98275137 0.9984119 0.98046863 0.959852 0.983275 0.9638881 0.975386 0.96463674
0.96652853 0.9756925 0.96233 0.9647909 1.0058284 0.9765725 0.97081804 0.98566467
0.95658165 0.9562912 0.9310461 0.95502776 0.97588676 0.9345505 0.9834147 0.9696694
0.99507827 0.95067006 0.9527691 0.9693182 0.97655743 0.9839171 0.97554374 1.0023836
0.966352 0.98246515 0.96258926 0.9836026
00000000: fe56 753f 4a78 7e3f bb4f 773f fea5 723f
00000010: ddb9 763f 0675 7a3f d5c0 743f cf13 753f
00000020: a19e 6c3f ff91 793f da8f 7d3f 2ea4 7d3f
00000030: 85ba 733f 0a9a 783f 1405 793f 00d1 753f
00000040: 3a9a 7b3f feec 743f d649 7b3f e03b 7c3f
00000050: c839 793f a7c0 773f d4a9 7b3f dfdb 763f
00000060: f4b1 7a3f dbef 7c3f 447f 773f ab05 743f
00000070: 58ed 773f fa69 713f 787d 7a3f 913a 7a3f
00000080: 00b8 753f c11b 7a3f 300e 773f 2d42 793f
00000090: f876 7d3f 3140 7b3f 6063 7a3f dd02 793f
000000a0: 28f7 7b3f df8a 7a3f ac9c 773f f61c 7b3f
000000b0: 6477 753f b3a3 763f d140 7c3f bdb7 793f
000000c0: ed20 753f 75d6 763f cdc4 723f 7af0 783f
000000d0: 4e64 743f c3d9 7e3f 9516 753f 8aaa 733f
000000e0: 6c3f 7a3f d5b7 7d3f 0944 7a3f 726c 783f
000000f0: 6032 783f 014a 793f ea63 7b3f 3a9e 763f
00000100: 9895 7b3f ec97 7f3f feff 7a3f dcb8 753f
00000110: e9b7 7b3f 5fc1 763f e6b2 793f 6ff2 763f
00000120: 6a6e 773f fcc6 793f 425b 763f 89fc 763f
00000130: fcbe 803f a800 7a3f 8887 783f 8554 7c3f
00000140: 89e2 743f 80cf 743f 0a59 6e3f b37c 743f
00000150: b7d3 793f b43e 6f3f 11c1 7b3f 413c 783f
00000160: 73bd 7e3f 1d5f 733f ade8 733f 3d25 783f
00000170: abff 793f fee1 7b3f 3cbd 793f 1b4e 803f
00000180: d862 773f d682 7b3f 406c 763f 61cd 7b3f

bias f4 [100]
-0.0014199631 -0.02104813 -0.008438697 -0.0020467376 0.015332585 0.006301661 -0.013532555 -0.024438046
0.010016656 0.0028469046 -0.0071797287 -0.012143195 -0.052424066 -0.003462384 0.007992391 -0.008759295
-0.02016217 0.017230332 0.0049364655 -0.0070744753 -0.0014553396 0.0088672675 0.024910485 -0.0175309
-0.039337005 0.0051431796 0.008116909 0.0035885805 -0.013564187 -0.036119003 0.0098888315 0.009816632
0.01689465 0.0008333209 0.013400797 0.018867783 0.004442164 0.00056966743 -0.02218723 0.01908568
0.0066480897 -0.0056892033 -0.022243535 0.014228138 0.0065604798 -0.011387837 0.009884765 -0.0035695573
0.002722179 0.0010149316 0.02406315 -0.012527725 -0.008004337 0.003546774 0.015963616 -0.00052629755
0.015954604 -0.006367163 -0.0010515557 -0.005207979 0.013314553 0.0040105367 -0.0060889 0.010193785
-0.0031100758 -0.0113080125 -0.0023468456 0.011846659 0.005620322 -0.013623425 0.014487461 0.013272321
-0.00894833 0.010193269 0.010753874 0.022991834 -0.0078052306 0.0006324551 0.0050322628 0.008851293
-0.008213306 0.0059833983 -0.018025642 0.0038458088 -0.0136109665 0.018622976 -0.01278127 -0.02110505
-0.017062828 0.0020155443 0.011416631 0.0146138705 -0.0030050653 0.024687089 -0.02614504 0.0158354
-0.009250995 -0.019591352 -0.009447565 0.018216336
00000000: 0e1e baba 216d acbc 7642 0abc 8f22 06bb
00000010: 8635 7b3c 2a7e ce3b a6b7 5dbc 4c32 c8bc
00000020: e61c 243c 2293 3a3b ee43 ebbb 40f4 46bc
00000030: 9eba 56bd 2ae9 62bb 84f2 023c 2583 0fbc
00000040: 232b a5bc a026 8d3c 13c2 a13b 00d1 e7bb
00000050: 18c1 beba 0448 113c 1311 cc3c f69c 8fbc
00000060: d71f 21bd 1e88 a83b c9fc 043c 642e 6b3b
00000070: 533c 5ebc 85f1 13bd c404 223c f0d5 203c
00000080: a666 8a3c 3873 5a3a 048f 5b3c 9c90 9a3c
00000090: 938f 913b bc55 153a fec1 b5bc 9259 9c3c
000000a0: 38d8 d93b 7f6c babb 1338 b6bc 231d 693c
000000b0: 4bf9 d63b 0d94 3abc b6f3 213c 3cef 69bb
000000c0: 9666 323b 7407 853a 1520 c53c 1641 4dbc
000000d0: 9f24 03bc fe70 683b 21c6 823c 3bf7 09ba
000000e0: 3bb3 823c a2a3 d0bb 5bd4 89ba b2a7 aabb
000000f0: 4825 5a3c d26a 833b 6585 c7bb d503 273c
00000100: 6ad2 4bbb 3e45 39bc 89cd 19bb 7d18 423c
00000110: ae2a b83b c934 5fbc d15c 6d3c 2674 593c
00000120: 049c 12bc ab01 273c 0431 303c 5f59 bc3c
00000130: 05c3 ffbb 58cb 253a aee5 a43b 0305 113c
00000140: 1a91 06bc 6210 c43b 83aa 93bc f709 7c3b
00000150: 8800 5fbc 368f 983c 8868 51bc 7fe4 acbc
00000160: 58c7 8bbc 3917 043b d20c 3b3c 046f 6f3c
00000170: a1f0 44bb 943c ca3c 1f2e d6bc 3eb9 813c
00000180: 7c91 17bc 0b7e a0bc f6c9 1abc 6d3a 953c

running_mean f4 [100]
0.42494258 0.38389614 0.32323286 0.31760138 0.3942724 0.3908813 0.36157635 0.40788287
0.5137009 0.40921265 0.33288777 0.35990074 0.33664587 0.4034683 0.43494642 0.36584523
0.35984424 0.35724035 0.47457787 0.3980495 0.47654524 0.47414124 0.5428537 0.4453357
0.31154138 0.43210214 0.30683804 0.25039497 0.4594137 0.3653093 0.3197279 0.39915213
0.3618381 0.37780672 0.36543947 0.38874394 0.3666598 0.230076 0.37467802 0.3219692
0.3203942 0.39171475 0.35301685 0.36648718 0.3212837 0.39227903 0.38116634 0.5548628
0.36854246 0.45791608 0.33871636 0.34230295 0.32555655 0.37902942 0.46301377 0.4814124
0.39687338 0.49884385 0.3130237 0.36005837 0.4394649 0.40039626 0.37943128 0.33354083
0.2633281 0.27864414 0.51929176 0.4197654 0.36187813 0.2967182 0.4054672 0.32993323
0.3234726 0.4390062 0.31064582 0.430735 0.30699256 0.34767497 0.2940662 0.28989583
0.32337853 0.4010593 0.48664385 0.41307747 0.34602574 0.46618563 0.61164445 0.42959392
0.30841 0.45698375 0.35107294 0.39116788 0.33356848 0.3790872 0.32414183 0.35431856
0.4136521 0.5484469 0.34542394 0.5068993
00000000: 1392 d93e 098e c43e c77e a53e a69c a23e
00000010: 12de c93e 9821 c83e 8920 b93e 06d6 d03e
00000020: e781 033f 5284 d13e 4470 aa3e e944 b83e
00000030: d95c ac3e 6693 ce3e 4cb1 de3e 1150 bb3e
00000040: 813d b83e 35e8 b63e dffb f23e 25cd cb3e
00000050: bdfd f33e a4c2 f23e 76f8 0a3f 0a03 e43e
00000060: 5a82 9f3e 7e3c dd3e e019 9d3e c533 803e
00000070: 4638 eb3e d209 bb3e 60b3 a33e ab5d cc3e
00000080: d842 b93e e26f c13e e21a bb3e 7209 c73e
00000090: d5ba bb3e 0b99 6b3e ccd5 bf3e 26d9 a43e
000000a0: b50a a43e d68e c83e a0be b43e 35a4 bb3e
000000b0: 4c7f a43e ccd8 c83e 3c28 c33e 7d0b 0e3f
000000c0: 99b1 bc3e fa73 ea3e 3b6c ad3e 5542 af3e
000000d0: 59af a63e 2510 c23e 2410 ed3e b07b f63e
000000e0: fd32 cb3e 7668 ff3e a444 a03e 9259 b83e
000000f0: 8b01 e13e bd00 cd3e d144 c23e ddc5 aa3e
00000100: f1d2 863e 72aa 8e3e 4ef0 043f 7eeb d63e
00000110: 1748 b93e 73eb 973e 6699 cf3e 02ed a83e
00000120: 339e a53e 6cc5 e03e f80c 9f3e 4c89 dc3e
00000130: 212e 9d3e 7402 b23e d88f 963e 3a6d 943e
00000140: df91 a53e a557 cd3e 6229 f93e e47e d33e
00000150: 492a b13e e2af ee3e bb94 1c3f bcf3 db3e
00000160: eae7 9d3e c6f9 e93e d5bf b33e 2847 c83e
00000170: 7dc9 aa3e b817 c23e ebf5 a53e 3e69 b53e
00000180: 35ca d33e 0467 0c3f 68db b03e 27c4 013f

running_var f4 [100]
0.5323259 0.34684396 0.34431309 0.4459676 0.62563413 0.755574 0.42480683 0.44432902
0.7184609 0.7178628 0.6785115 0.5448971 0.42820275 0.4960242 0.8337017 0.44029766
0.43410397 0.35332146 0.557147 0.4507119 0.7112843 0.60213643 0.8411661 0.47729313
0.47103825 0.6259908 0.4786253 0.29021177 0.63324547 0.59227145 0.5502062 0.6875789
0.44938895 0.6117285 0.5072114 0.6118827 0.61158043 0.2691091 0.6813602 0.2941091
0.27708477 0.5668982 0.48462057 0.46421617 0.33266637 0.42834187 0.347462 0.6876092
0.54007334 0.6352216 0.4128343 0.4075361 0.44854817 0.7535292 0.539022 0.6019987
0.44274577 0.8600959 0.37010953 0.35804576 0.6261349 0.643099 0.5620774 0.4972233
0.29996684 0.36542603 0.665411 0.6343877 0.44624993 0.38886592 0.6503791 0.43285838
0.40457678 0.53919923 0.27233338 0.617196 0.39362827 0.41681376 0.41485843 0.36552265
0.3032888 0.45535612 0.6306177 0.5422063 0.39851752 0.5846725 1.0267903 0.5427301
0.4366344 0.50215995 0.3376671 0.43481657 0.35031307 0.61150724 0.28490674 0.42904547
0.59052795 0.86210304 0.3752612 1.0881823
00000000: 8346 083f 8895 b13e ce49 b03e de55 e43e
00000010: 8f29 203f 4c6d 413f 4880 d93e 187f e33e
00000020: 0eed 373f dbc5 373f eeb2 2d3f 607e 0b3f
00000030: 643d db3e e2f6 fd3e 7a6d 553f b26e e13e
00000040: e042 de3e 8de6 b43e 30a1 0e3f b6c3 e63e
00000050: ba16 363f 9d25 1a3f a956 573f c45f f43e
00000060: ed2b f13e ef40 203f 600e f53e a396 943e
00000070: 601c 223f 1a9f 173f 50da 0c3f 2c05 303f
00000080: 4f16 e63e 3d9a 1c3f 9bd8 013f 58a4 1c3f
00000090: 8990 1c3f abc8 893e 9f6d 2e3f 7895 963e
000000a0: 0ede 8d3e 3e20 113f 3020 f83e bead ed3e
000000b0: 3f53 aa3e a04f db3e 8ae6 b13e 2807 303f
000000c0: 3f42 0a3f e29d 223f 045f d33e 92a8 d03e
000000d0: 1ba8 e53e 4ae7 403f 59fd 093f 961c 1a3f
000000e0: 93af e23e 3f2f 5c3f ff7e bd3e c651 b73e
000000f0: 604a 203f 23a2 243f 4ee4 0f3f 0d94 fe3e
00000100: 4195 993e 1f19 bb3e 6058 2a3f 3b67 223f
00000110: df7a e43e 6f19 c73e 3f7f 263f 9d9f dd3e
00000120: b024 cf3e f608 0a3f 486f 8b3e 8f00 1e3f
00000130: a589 c93e 9d68 d53e 5368 d43e c925 bb3e
00000140: ab48 9b3e 7024 e93e 2970 213f 08ce 0a3f
00000150: 7d0a cc3e 19ad 153f dd6d 833f 5cf0 0a3f
00000160: 8b8e df3e 8e8d 003f b4e2 ac3e 47a0 de3e
00000170: 3c5c b33e bd8b 1c3f 4cdf 913e d9ab db3e
00000180: d72c 173f c9b2 5c3f 3c22 c03e 8f49 8b3f

weight f4 [1, 100]
-0.0075517343 0.042195056 -0.041105688 -0.04245503 -0.007732387 0.0063347346 0.03339643 0.042046987
-0.010394881 0.07162892 0.03449186 0.046022374 0.0041262573 0.06861518 0.06975559 0.027371444
0.02082464 -0.0034468647 -0.037607286 0.018217992 0.053498954 0.015678314 -0.07754739 0.022385506
0.02527704 -0.06942063 -0.04979249 0.043524165 0.046349116 -0.0007121614 -0.024061484 -0.010992363
0.01661202 0.073702216 -0.01063018 -0.043393504 0.08019648 0.028449195 0.07718255 -0.07162974
-0.025105676 -0.023871863 0.0030928976 -0.019894183 -0.006235319 -0.015390065 -0.06199353 0.014979071
0.050605983 -0.021242136 0.006541484 0.00089026906 0.04991362 0.018634608 0.033191 -0.046955213
-0.011975906 0.08763053 0.014790943 -0.043285783 -0.042927884 0.00068305753 0.054801017 -0.059227824
0.04599237 0.0792945 0.059070528 -0.048066456 -0.056795903 -0.023848217 -0.045152344 -0.028760882
0.011869712 -0.06739601 -0.037726115 -0.047324423 0.045080908 -0.029424395 0.00023819914 0.050074954
0.0023718355 0.04693072 -0.0019531534 -0.052890927 0.012247813 -0.004839223 -0.011264306 0.04154398
0.02309038 -0.0030561732 -0.018174408 -0.0057865195 0.00033155983 -0.0049109003 0.02740608 -0.02165358
-0.06472363 0.05348364 0.06278269 -0.02652828
00000000: 8a74 f7bb b9d4 2c3d 705e 28bd 53e5 2dbd
00000010: f75f fdbb 9b93 cf3b b2ca 083d 7639 2c3d
00000020: 4a4f 2abc 2fb2 923d 5647 0d3d f581 3c3d
00000030: 8e35 873b 1e86 8c3d 05dc 8e3d 143a e03c
00000040: 6f98 aa3c cbe4 61bb 190a 1abd e63d 953c
00000050: b821 5b3d cf6f 803c 2ad1 9ebd cf61 b73c
00000060: cc11 cf3c 672c 8ebd 36f3 4bbd 6546 323d
00000070: 92d8 3d3d 58b0 3aba 971c c5bc 5019 34bc
00000080: ee15 883c 30f1 963d 352a 2ebc 63bd 31bd
00000090: 0d3e a43d 490e e93c e311 9e3d 9db2 92bd
000000a0: 6baa cdbc ed8e c3bc 36b2 4a3b 20f9 a2bc
000000b0: a651 ccbb 9c26 7cbc edec 7dbd c76a 753c
000000c0: 3848 4f3d fd03 aebc f259 d63b f260 693a
000000d0: 3972 4c3d 9ba7 983c 49f3 073d 1c54 40bd
000000e0: 9736 44bc a377 b33d b655 723c 6f4c 31bd
000000f0: 26d5 2fbd 370f 333a 0877 603d e098 72bd
00000100: 7f62 3c3d 2865 a23d f0f3 713d 55e1 44bd
00000110: d2a2 68bd 565d c3bc aaf1 38bd f19b ebbc
00000120: 2e79 423c eb06 8abd b386 1abd 41d7 41bd
00000130: c2a6 383d 6e0b f1bc 18c5 7939 651b 4d3d
00000140: cc70 1b3b 6d3a 403d 7a00 00bb 28a4 58bd
00000150: 0dab 483c 5892 9ebb ec8d 38bc 052a 2a3d
00000160: 0928 bd3c 144a 48bb 7fe2 94bc d89c bdbb
00000170: 35d5 ad39 9eeb a0bb b782 e03c d962 b1bc
00000180: d38d 84bd a911 5b3d 3694 803d d651 d9bc
